…
find model: ./insightface/models/antelopev2/scrfd_10g_bnkps.onnx detection [1, 3, '?', '?'] 127.5 128.0
set det-size: (640, 640)
Start inference...
[Debug] Prompt: Flat illustration, a Chinese hahah haha ahaha haha aha haha ah , ancient style, wearing a red cloth, smile face, white skin, clean background, fireworks blooming, red lanterns, 
[Debug] Neg Prompt: photo, deformed, black and white, realism, disfigured, low contrast, realistic, cropped, worst quality, missing fingers, extra digit, jpeg artifacts, signature, multiple, (lowres, low quality, worst quality:1.2) hahah haha ahaha haha aha haha ah 
offload device:  cuda:0
module:  AutoencoderKL(
  (encoder): Encoder(
    (conv_in): Conv2d(3, 128, kernel_size=(3, 3), stride=(1, 1), padding=(1, 1))
    (down_blocks): ModuleList(
      (0): DownEncoderBlock2D(
        (resnets): ModuleList(
          (0-1): 2 x ResnetBlock2D(
            (norm1): GroupNorm(32, 128, eps=1e-06, affine=True)
            (conv1): Conv2d(128, 128, kernel_size=(3, 3), stride=(1, 1), padding=(1, 1))
            (norm2): GroupNorm(32, 128, eps=1e-06, affine=True)
            (dropout): Dropout(p=0.0, inplace=False)
            (conv2): Conv2d(128, 128, kernel_size=(3, 3), stride=(1, 1), padding=(1, 1))
            (nonlinearity): SiLU()
          )
        )
        (downsamplers): ModuleList(
          (0): Downsample2D(
            (conv): Conv2d(128, 128, kernel_size=(3, 3), stride=(2, 2))
          )
        )
      )
      (1): DownEncoderBlock2D(
        (resnets): ModuleList(
          (0): ResnetBlock2D(
            (norm1): GroupNorm(32, 128, eps=1e-06, affine=True)
            (conv1): Conv2d(128, 256, kernel_size=(3, 3), stride=(1, 1), padding=(1, 1))
            (norm2): GroupNorm(32, 256, eps=1e-06, affine=True)
            (dropout): Dropout(p=0.0, inplace=False)
            (conv2): Conv2d(256, 256, kernel_size=(3, 3), stride=(1, 1), padding=(1, 1))
            (nonlinearity): SiLU()
            (conv_shortcut): Conv2d(128, 256, kernel_size=(1, 1), stride=(1, 1))
          )
          (1): ResnetBlock2D(
            (norm1): GroupNorm(32, 256, eps=1e-06, affine=True)
            (conv1): Conv2d(256, 256, kernel_size=(3, 3), stride=(1, 1), padding=(1, 1))
            (norm2): GroupNorm(32, 256, eps=1e-06, affine=True)
            (dropout): Dropout(p=0.0, inplace=False)
            (conv2): Conv2d(256, 256, kernel_size=(3, 3), stride=(1, 1), padding=(1, 1))
            (nonlinearity): SiLU()
          )
        )
        (downsamplers): ModuleList(
          (0): Downsample2D(
            (conv): Conv2d(256, 256, kernel_size=(3, 3), stride=(2, 2))
          )
        )
      )
      (2): DownEncoderBlock2D(
        (resnets): ModuleList(
          (0): ResnetBlock2D(
            (norm1): GroupNorm(32, 256, eps=1e-06, affine=True)
            (conv1): Conv2d(256, 512, kernel_size=(3, 3), stride=(1, 1), padding=(1, 1))
            (norm2): GroupNorm(32, 512, eps=1e-06, affine=True)
            (dropout): Dropout(p=0.0, inplace=False)
            (conv2): Conv2d(512, 512, kernel_size=(3, 3), stride=(1, 1), padding=(1, 1))
            (nonlinearity): SiLU()
            (conv_shortcut): Conv2d(256, 512, kernel_size=(1, 1), stride=(1, 1))
          )
          (1): ResnetBlock2D(
            (norm1): GroupNorm(32, 512, eps=1e-06, affine=True)
            (conv1): Conv2d(512, 512, kernel_size=(3, 3), stride=(1, 1), padding=(1, 1))
            (norm2): GroupNorm(32, 512, eps=1e-06, affine=True)
            (dropout): Dropout(p=0.0, inplace=False)
            (conv2): Conv2d(512, 512, kernel_size=(3, 3), stride=(1, 1), padding=(1, 1))
            (nonlinearity): SiLU()
          )
        )
        (downsamplers): ModuleList(
          (0): Downsample2D(
            (conv): Conv2d(512, 512, kernel_size=(3, 3), stride=(2, 2))
          )
        )
      )
      (3): DownEncoderBlock2D(
        (resnets): ModuleList(
          (0-1): 2 x ResnetBlock2D(
            (norm1): GroupNorm(32, 512, eps=1e-06, affine=True)
            (conv1): Conv2d(512, 512, kernel_size=(3, 3), stride=(1, 1), padding=(1, 1))
            (norm2): GroupNorm(32, 512, eps=1e-06, affine=True)
            (dropout): Dropout(p=0.0, inplace=False)
            (conv2): Conv2d(512, 512, kernel_size=(3, 3), stride=(1, 1), padding=(1, 1))
            (nonlinearity): SiLU()
          )
        )
      )
    )
    (mid_block): UNetMidBlock2D(
      (attentions): ModuleList(
        (0): Attention(
          (group_norm): GroupNorm(32, 512, eps=1e-06, affine=True)
          (to_q): Linear(in_features=512, out_features=512, bias=True)
          (to_k): Linear(in_features=512, out_features=512, bias=True)
          (to_v): Linear(in_features=512, out_features=512, bias=True)
          (to_out): ModuleList(
            (0): Linear(in_features=512, out_features=512, bias=True)
            (1): Dropout(p=0.0, inplace=False)
          )
        )
      )
      (resnets): ModuleList(
        (0-1): 2 x ResnetBlock2D(
          (norm1): GroupNorm(32, 512, eps=1e-06, affine=True)
          (conv1): Conv2d(512, 512, kernel_size=(3, 3), stride=(1, 1), padding=(1, 1))
          (norm2): GroupNorm(32, 512, eps=1e-06, affine=True)
          (dropout): Dropout(p=0.0, inplace=False)
          (conv2): Conv2d(512, 512, kernel_size=(3, 3), stride=(1, 1), padding=(1, 1))
          (nonlinearity): SiLU()
        )
      )
    )
    (conv_norm_out): GroupNorm(32, 512, eps=1e-06, affine=True)
    (conv_act): SiLU()
    (conv_out): Conv2d(512, 8, kernel_size=(3, 3), stride=(1, 1), padding=(1, 1))
  )
  (decoder): Decoder(
    (conv_in): Conv2d(4, 512, kernel_size=(3, 3), stride=(1, 1), padding=(1, 1))
    (up_blocks): ModuleList(
      (0-1): 2 x UpDecoderBlock2D(
        (resnets): ModuleList(
          (0-2): 3 x ResnetBlock2D(
            (norm1): GroupNorm(32, 512, eps=1e-06, affine=True)
            (conv1): Conv2d(512, 512, kernel_size=(3, 3), stride=(1, 1), padding=(1, 1))
            (norm2): GroupNorm(32, 512, eps=1e-06, affine=True)
            (dropout): Dropout(p=0.0, inplace=False)
            (conv2): Conv2d(512, 512, kernel_size=(3, 3), stride=(1, 1), padding=(1, 1))
            (nonlinearity): SiLU()
          )
        )
        (upsamplers): ModuleList(
          (0): Upsample2D(
            (conv): Conv2d(512, 512, kernel_size=(3, 3), stride=(1, 1), padding=(1, 1))
          )
        )
      )
      (2): UpDecoderBlock2D(
        (resnets): ModuleList(
          (0): ResnetBlock2D(
            (norm1): GroupNorm(32, 512, eps=1e-06, affine=True)
            (conv1): Conv2d(512, 256, kernel_size=(3, 3), stride=(1, 1), padding=(1, 1))
            (norm2): GroupNorm(32, 256, eps=1e-06, affine=True)
            (dropout): Dropout(p=0.0, inplace=False)
            (conv2): Conv2d(256, 256, kernel_size=(3, 3), stride=(1, 1), padding=(1, 1))
            (nonlinearity): SiLU()
            (conv_shortcut): Conv2d(512, 256, kernel_size=(1, 1), stride=(1, 1))
          )
          (1-2): 2 x ResnetBlock2D(
            (norm1): GroupNorm(32, 256, eps=1e-06, affine=True)
            (conv1): Conv2d(256, 256, kernel_size=(3, 3), stride=(1, 1), padding=(1, 1))
            (norm2): GroupNorm(32, 256, eps=1e-06, affine=True)
            (dropout): Dropout(p=0.0, inplace=False)
            (conv2): Conv2d(256, 256, kernel_size=(3, 3), stride=(1, 1), padding=(1, 1))
            (nonlinearity): SiLU()
          )
        )
        (upsamplers): ModuleList(
          (0): Upsample2D(
            (conv): Conv2d(256, 256, kernel_size=(3, 3), stride=(1, 1), padding=(1, 1))
          )
        )
      )
      (3): UpDecoderBlock2D(
        (resnets): ModuleList(
          (0): ResnetBlock2D(
            (norm1): GroupNorm(32, 256, eps=1e-06, affine=True)
            (conv1): Conv2d(256, 128, kernel_size=(3, 3), stride=(1, 1), padding=(1, 1))
            (norm2): GroupNorm(32, 128, eps=1e-06, affine=True)
            (dropout): Dropout(p=0.0, inplace=False)
            (conv2): Conv2d(128, 128, kernel_size=(3, 3), stride=(1, 1), padding=(1, 1))
            (nonlinearity): SiLU()
            (conv_shortcut): Conv2d(256, 128, kernel_size=(1, 1), stride=(1, 1))
          )
          (1-2): 2 x ResnetBlock2D(
            (norm1): GroupNorm(32, 128, eps=1e-06, affine=True)
            (conv1): Conv2d(128, 128, kernel_size=(3, 3), stride=(1, 1), padding=(1, 1))
            (norm2): GroupNorm(32, 128, eps=1e-06, affine=True)
            (dropout): Dropout(p=0.0, inplace=False)
            (conv2): Conv2d(128, 128, kernel_size=(3, 3), stride=(1, 1), padding=(1, 1))
            (nonlinearity): SiLU()
          )
        )
      )
    )
    (mid_block): UNetMidBlock2D(
      (attentions): ModuleList(
        (0): Attention(
          (group_norm): GroupNorm(32, 512, eps=1e-06, affine=True)
          (to_q): Linear(in_features=512, out_features=512, bias=True)
          (to_k): Linear(in_features=512, out_features=512, bias=True)
          (to_v): Linear(in_features=512, out_features=512, bias=True)
          (to_out): ModuleList(
            (0): Linear(in_features=512, out_features=512, bias=True)
            (1): Dropout(p=0.0, inplace=False)
          )
        )
      )
      (resnets): ModuleList(
        (0-1): 2 x ResnetBlock2D(
          (norm1): GroupNorm(32, 512, eps=1e-06, affine=True)
          (conv1): Conv2d(512, 512, kernel_size=(3, 3), stride=(1, 1), padding=(1, 1))
          (norm2): GroupNorm(32, 512, eps=1e-06, affine=True)
          (dropout): Dropout(p=0.0, inplace=False)
          (conv2): Conv2d(512, 512, kernel_size=(3, 3), stride=(1, 1), padding=(1, 1))
          (nonlinearity): SiLU()
        )
      )
    )
    (conv_norm_out): GroupNorm(32, 128, eps=1e-06, affine=True)
    (conv_act): SiLU()
    (conv_out): Conv2d(128, 3, kernel_size=(3, 3), stride=(1, 1), padding=(1, 1))
  )
  (quant_conv): Conv2d(8, 8, kernel_size=(1, 1), stride=(1, 1))
  (post_quant_conv): Conv2d(4, 4, kernel_size=(1, 1), stride=(1, 1))
)  hook:  AlignDevicesHook(execution_device=None, offload=False, io_same_device=True, offload_buffers=False, place_submodules=False, skip_keys=None)
module:  Conv2d(3, 128, kernel_size=(3, 3), stride=(1, 1), padding=(1, 1))  hook:  AlignDevicesHook(execution_device=cuda:0, offload=True, io_same_device=False, offload_buffers=False, place_submodules=False, skip_keys=None)
…
module:  Conv2d(128, 3, kernel_size=(3, 3), stride=(1, 1), padding=(1, 1))  hook:  AlignDevicesHook(execution_device=cuda:0, offload=True, io_same_device=False, offload_buffers=False, place_submodules=False, skip_keys=None)
module:  Conv2d(8, 8, kernel_size=(1, 1), stride=(1, 1))  hook:  AlignDevicesHook(execution_device=cuda:0, offload=True, io_same_device=False, offload_buffers=False, place_submodules=False, skip_keys=None)
module:  Conv2d(4, 4, kernel_size=(1, 1), stride=(1, 1))  hook:  AlignDevicesHook(execution_device=cuda:0, offload=True, io_same_device=False, offload_buffers=False, place_submodules=False, skip_keys=None)
module:  CLIPTextModel(
  (text_model): CLIPTextTransformer(
    (embeddings): CLIPTextEmbeddings(
      (token_embedding): Embedding(49408, 768)
      (position_embedding): Embedding(77, 768)
    )
    (encoder): CLIPEncoder(
      (layers): ModuleList(
        (0-11): 12 x CLIPEncoderLayer(
          (self_attn): CLIPSdpaAttention(
            (k_proj): Linear(in_features=768, out_features=768, bias=True)
            (v_proj): Linear(in_features=768, out_features=768, bias=True)
            (q_proj): Linear(in_features=768, out_features=768, bias=True)
            (out_proj): Linear(in_features=768, out_features=768, bias=True)
          )
          (layer_norm1): LayerNorm((768,), eps=1e-05, elementwise_affine=True)
          (mlp): CLIPMLP(
            (activation_fn): QuickGELUActivation()
            (fc1): Linear(in_features=768, out_features=3072, bias=True)
            (fc2): Linear(in_features=3072, out_features=768, bias=True)
          )
          (layer_norm2): LayerNorm((768,), eps=1e-05, elementwise_affine=True)
        )
      )
    )
    (final_layer_norm): LayerNorm((768,), eps=1e-05, elementwise_affine=True)
  )
)  hook:  AlignDevicesHook(execution_device=None, offload=False, io_same_device=True, offload_buffers=False, place_submodules=False, skip_keys=None)
module:  CLIPTextEmbeddings(
  (token_embedding): Embedding(49408, 768)
  (position_embedding): Embedding(77, 768)
)  hook:  AlignDevicesHook(execution_device=cuda:0, offload=True, io_same_device=False, offload_buffers=False, place_submodules=False, skip_keys=None)
module:  Embedding(49408, 768)  hook:  AlignDevicesHook(execution_device=cuda:0, offload=True, io_same_device=False, offload_buffers=False, place_submodules=False, skip_keys=None)
module:  Embedding(77, 768)  hook:  AlignDevicesHook(execution_device=cuda:0, offload=True, io_same_device=False, offload_buffers=False, place_submodules=False, skip_keys=None)
…
module:  Linear(in_features=3072, out_features=768, bias=True)  hook:  AlignDevicesHook(execution_device=cuda:0, offload=True, io_same_device=False, offload_buffers=False, place_submodules=False, skip_keys=None)
module:  LayerNorm((768,), eps=1e-05, elementwise_affine=True)  hook:  AlignDevicesHook(execution_device=cuda:0, offload=True, io_same_device=False, offload_buffers=False, place_submodules=False, skip_keys=None)
module:  LayerNorm((768,), eps=1e-05, elementwise_affine=True)  hook:  AlignDevicesHook(execution_device=cuda:0, offload=True, io_same_device=False, offload_buffers=False, place_submodules=False, skip_keys=None)
module:  CLIPTextModelWithProjection(
  (text_model): CLIPTextTransformer(
    (embeddings): CLIPTextEmbeddings(
      (token_embedding): Embedding(49408, 1280)
      (position_embedding): Embedding(77, 1280)
    )
    (encoder): CLIPEncoder(
      (layers): ModuleList(
        (0-31): 32 x CLIPEncoderLayer(
          (self_attn): CLIPSdpaAttention(
            (k_proj): Linear(in_features=1280, out_features=1280, bias=True)
            (v_proj): Linear(in_features=1280, out_features=1280, bias=True)
            (q_proj): Linear(in_features=1280, out_features=1280, bias=True)
            (out_proj): Linear(in_features=1280, out_features=1280, bias=True)
          )
          (layer_norm1): LayerNorm((1280,), eps=1e-05, elementwise_affine=True)
          (mlp): CLIPMLP(
            (activation_fn): GELUActivation()
            (fc1): Linear(in_features=1280, out_features=5120, bias=True)
            (fc2): Linear(in_features=5120, out_features=1280, bias=True)
          )
          (layer_norm2): LayerNorm((1280,), eps=1e-05, elementwise_affine=True)
        )
      )
    )
    (final_layer_norm): LayerNorm((1280,), eps=1e-05, elementwise_affine=True)
  )
  (text_projection): Linear(in_features=1280, out_features=1280, bias=False)
)  hook:  AlignDevicesHook(execution_device=None, offload=False, io_same_device=True, offload_buffers=False, place_submodules=False, skip_keys=None)
module:  CLIPTextEmbeddings(
  (token_embedding): Embedding(49408, 1280)
  (position_embedding): Embedding(77, 1280)
)  hook:  AlignDevicesHook(execution_device=cuda:0, offload=True, io_same_device=False, offload_buffers=False, place_submodules=False, skip_keys=None)
module:  Embedding(49408, 1280)  hook:  AlignDevicesHook(execution_device=cuda:0, offload=True, io_same_device=False, offload_buffers=False, place_submodules=False, skip_keys=None)
module:  Embedding(77, 1280)  hook:  AlignDevicesHook(execution_device=cuda:0, offload=True, io_same_device=False, offload_buffers=False, place_submodules=False, skip_keys=None)
…
module:  LayerNorm((1280,), eps=1e-05, elementwise_affine=True)  hook:  AlignDevicesHook(execution_device=cuda:0, offload=True, io_same_device=False, offload_buffers=False, place_submodules=False, skip_keys=None)
module:  LayerNorm((1280,), eps=1e-05, elementwise_affine=True)  hook:  AlignDevicesHook(execution_device=cuda:0, offload=True, io_same_device=False, offload_buffers=False, place_submodules=False, skip_keys=None)
module:  Linear(in_features=1280, out_features=1280, bias=False)  hook:  AlignDevicesHook(execution_device=cuda:0, offload=True, io_same_device=False, offload_buffers=False, place_submodules=False, skip_keys=None)
module:  UNet2DConditionModel(
  (conv_in): Conv2d(4, 320, kernel_size=(3, 3), stride=(1, 1), padding=(1, 1))
  (time_proj): Timesteps()
  (time_embedding): TimestepEmbedding(
    (linear_1): Linear(in_features=320, out_features=1280, bias=True)
    (act): SiLU()
    (linear_2): Linear(in_features=1280, out_features=1280, bias=True)
  )
  (add_time_proj): Timesteps()
  (add_embedding): TimestepEmbedding(
    (linear_1): Linear(in_features=2816, out_features=1280, bias=True)
    (act): SiLU()
    (linear_2): Linear(in_features=1280, out_features=1280, bias=True)
  )
  (down_blocks): ModuleList(
    (0): DownBlock2D(
      (resnets): ModuleList(
        (0-1): 2 x ResnetBlock2D(
          (norm1): GroupNorm(32, 320, eps=1e-05, affine=True)
          (conv1): Conv2d(320, 320, kernel_size=(3, 3), stride=(1, 1), padding=(1, 1))
          (time_emb_proj): Linear(in_features=1280, out_features=320, bias=True)
          (norm2): GroupNorm(32, 320, eps=1e-05, affine=True)
          (dropout): Dropout(p=0.0, inplace=False)
          (conv2): Conv2d(320, 320, kernel_size=(3, 3), stride=(1, 1), padding=(1, 1))
          (nonlinearity): SiLU()
        )
      )
      (downsamplers): ModuleList(
        (0): Downsample2D(
          (conv): Conv2d(320, 320, kernel_size=(3, 3), stride=(2, 2), padding=(1, 1))
        )
      )
    )
    (1): CrossAttnDownBlock2D(
      (attentions): ModuleList(
        (0-1): 2 x Transformer2DModel(
          (norm): GroupNorm(32, 640, eps=1e-06, affine=True)
          (proj_in): Linear(in_features=640, out_features=640, bias=True)
          (transformer_blocks): ModuleList(
            (0-1): 2 x BasicTransformerBlock(
              (norm1): LayerNorm((640,), eps=1e-05, elementwise_affine=True)
              (attn1): Attention(
                (to_q): Linear(in_features=640, out_features=640, bias=False)
                (to_k): Linear(in_features=640, out_features=640, bias=False)
                (to_v): Linear(in_features=640, out_features=640, bias=False)
                (to_out): ModuleList(
                  (0): Linear(in_features=640, out_features=640, bias=True)
                  (1): Dropout(p=0.0, inplace=False)
                )
                (processor): AttnProcessor()
              )
              (norm2): LayerNorm((640,), eps=1e-05, elementwise_affine=True)
              (attn2): Attention(
                (to_q): Linear(in_features=640, out_features=640, bias=False)
                (to_k): Linear(in_features=2048, out_features=640, bias=False)
                (to_v): Linear(in_features=2048, out_features=640, bias=False)
                (to_out): ModuleList(
                  (0): Linear(in_features=640, out_features=640, bias=True)
                  (1): Dropout(p=0.0, inplace=False)
                )
                (processor): IPAttnProcessor(
                  (to_k_ip): Linear(in_features=2048, out_features=640, bias=False)
                  (to_v_ip): Linear(in_features=2048, out_features=640, bias=False)
                )
              )
              (norm3): LayerNorm((640,), eps=1e-05, elementwise_affine=True)
              (ff): FeedForward(
                (net): ModuleList(
                  (0): GEGLU(
                    (proj): Linear(in_features=640, out_features=5120, bias=True)
                  )
                  (1): Dropout(p=0.0, inplace=False)
                  (2): Linear(in_features=2560, out_features=640, bias=True)
                )
              )
            )
          )
          (proj_out): Linear(in_features=640, out_features=640, bias=True)
        )
      )
      (resnets): ModuleList(
        (0): ResnetBlock2D(
          (norm1): GroupNorm(32, 320, eps=1e-05, affine=True)
          (conv1): Conv2d(320, 640, kernel_size=(3, 3), stride=(1, 1), padding=(1, 1))
          (time_emb_proj): Linear(in_features=1280, out_features=640, bias=True)
          (norm2): GroupNorm(32, 640, eps=1e-05, affine=True)
          (dropout): Dropout(p=0.0, inplace=False)
          (conv2): Conv2d(640, 640, kernel_size=(3, 3), stride=(1, 1), padding=(1, 1))
          (nonlinearity): SiLU()
          (conv_shortcut): Conv2d(320, 640, kernel_size=(1, 1), stride=(1, 1))
        )
        (1): ResnetBlock2D(
          (norm1): GroupNorm(32, 640, eps=1e-05, affine=True)
          (conv1): Conv2d(640, 640, kernel_size=(3, 3), stride=(1, 1), padding=(1, 1))
          (time_emb_proj): Linear(in_features=1280, out_features=640, bias=True)
          (norm2): GroupNorm(32, 640, eps=1e-05, affine=True)
          (dropout): Dropout(p=0.0, inplace=False)
          (conv2): Conv2d(640, 640, kernel_size=(3, 3), stride=(1, 1), padding=(1, 1))
          (nonlinearity): SiLU()
        )
      )
      (downsamplers): ModuleList(
        (0): Downsample2D(
          (conv): Conv2d(640, 640, kernel_size=(3, 3), stride=(2, 2), padding=(1, 1))
        )
      )
    )
    (2): CrossAttnDownBlock2D(
      (attentions): ModuleList(
        (0-1): 2 x Transformer2DModel(
          (norm): GroupNorm(32, 1280, eps=1e-06, affine=True)
          (proj_in): Linear(in_features=1280, out_features=1280, bias=True)
          (transformer_blocks): ModuleList(
            (0-9): 10 x BasicTransformerBlock(
              (norm1): LayerNorm((1280,), eps=1e-05, elementwise_affine=True)
              (attn1): Attention(
                (to_q): Linear(in_features=1280, out_features=1280, bias=False)
                (to_k): Linear(in_features=1280, out_features=1280, bias=False)
                (to_v): Linear(in_features=1280, out_features=1280, bias=False)
                (to_out): ModuleList(
                  (0): Linear(in_features=1280, out_features=1280, bias=True)
                  (1): Dropout(p=0.0, inplace=False)
                )
                (processor): AttnProcessor()
              )
              (norm2): LayerNorm((1280,), eps=1e-05, elementwise_affine=True)
              (attn2): Attention(
                (to_q): Linear(in_features=1280, out_features=1280, bias=False)
                (to_k): Linear(in_features=2048, out_features=1280, bias=False)
                (to_v): Linear(in_features=2048, out_features=1280, bias=False)
                (to_out): ModuleList(
                  (0): Linear(in_features=1280, out_features=1280, bias=True)
                  (1): Dropout(p=0.0, inplace=False)
                )
                (processor): IPAttnProcessor(
                  (to_k_ip): Linear(in_features=2048, out_features=1280, bias=False)
                  (to_v_ip): Linear(in_features=2048, out_features=1280, bias=False)
                )
              )
              (norm3): LayerNorm((1280,), eps=1e-05, elementwise_affine=True)
              (ff): FeedForward(
                (net): ModuleList(
                  (0): GEGLU(
                    (proj): Linear(in_features=1280, out_features=10240, bias=True)
                  )
                  (1): Dropout(p=0.0, inplace=False)
                  (2): Linear(in_features=5120, out_features=1280, bias=True)
                )
              )
            )
          )
          (proj_out): Linear(in_features=1280, out_features=1280, bias=True)
        )
      )
      (resnets): ModuleList(
        (0): ResnetBlock2D(
          (norm1): GroupNorm(32, 640, eps=1e-05, affine=True)
          (conv1): Conv2d(640, 1280, kernel_size=(3, 3), stride=(1, 1), padding=(1, 1))
          (time_emb_proj): Linear(in_features=1280, out_features=1280, bias=True)
          (norm2): GroupNorm(32, 1280, eps=1e-05, affine=True)
          (dropout): Dropout(p=0.0, inplace=False)
          (conv2): Conv2d(1280, 1280, kernel_size=(3, 3), stride=(1, 1), padding=(1, 1))
          (nonlinearity): SiLU()
          (conv_shortcut): Conv2d(640, 1280, kernel_size=(1, 1), stride=(1, 1))
        )
        (1): ResnetBlock2D(
          (norm1): GroupNorm(32, 1280, eps=1e-05, affine=True)
          (conv1): Conv2d(1280, 1280, kernel_size=(3, 3), stride=(1, 1), padding=(1, 1))
          (time_emb_proj): Linear(in_features=1280, out_features=1280, bias=True)
          (norm2): GroupNorm(32, 1280, eps=1e-05, affine=True)
          (dropout): Dropout(p=0.0, inplace=False)
          (conv2): Conv2d(1280, 1280, kernel_size=(3, 3), stride=(1, 1), padding=(1, 1))
          (nonlinearity): SiLU()
        )
      )
    )
  )
  (up_blocks): ModuleList(
    (0): CrossAttnUpBlock2D(
      (attentions): ModuleList(
        (0-2): 3 x Transformer2DModel(
          (norm): GroupNorm(32, 1280, eps=1e-06, affine=True)
          (proj_in): Linear(in_features=1280, out_features=1280, bias=True)
          (transformer_blocks): ModuleList(
            (0-9): 10 x BasicTransformerBlock(
              (norm1): LayerNorm((1280,), eps=1e-05, elementwise_affine=True)
              (attn1): Attention(
                (to_q): Linear(in_features=1280, out_features=1280, bias=False)
                (to_k): Linear(in_features=1280, out_features=1280, bias=False)
                (to_v): Linear(in_features=1280, out_features=1280, bias=False)
                (to_out): ModuleList(
                  (0): Linear(in_features=1280, out_features=1280, bias=True)
                  (1): Dropout(p=0.0, inplace=False)
                )
                (processor): AttnProcessor()
              )
              (norm2): LayerNorm((1280,), eps=1e-05, elementwise_affine=True)
              (attn2): Attention(
                (to_q): Linear(in_features=1280, out_features=1280, bias=False)
                (to_k): Linear(in_features=2048, out_features=1280, bias=False)
                (to_v): Linear(in_features=2048, out_features=1280, bias=False)
                (to_out): ModuleList(
                  (0): Linear(in_features=1280, out_features=1280, bias=True)
                  (1): Dropout(p=0.0, inplace=False)
                )
                (processor): IPAttnProcessor(
                  (to_k_ip): Linear(in_features=2048, out_features=1280, bias=False)
                  (to_v_ip): Linear(in_features=2048, out_features=1280, bias=False)
                )
              )
              (norm3): LayerNorm((1280,), eps=1e-05, elementwise_affine=True)
              (ff): FeedForward(
                (net): ModuleList(
                  (0): GEGLU(
                    (proj): Linear(in_features=1280, out_features=10240, bias=True)
                  )
                  (1): Dropout(p=0.0, inplace=False)
                  (2): Linear(in_features=5120, out_features=1280, bias=True)
                )
              )
            )
          )
          (proj_out): Linear(in_features=1280, out_features=1280, bias=True)
        )
      )
      (resnets): ModuleList(
        (0-1): 2 x ResnetBlock2D(
          (norm1): GroupNorm(32, 2560, eps=1e-05, affine=True)
          (conv1): Conv2d(2560, 1280, kernel_size=(3, 3), stride=(1, 1), padding=(1, 1))
          (time_emb_proj): Linear(in_features=1280, out_features=1280, bias=True)
          (norm2): GroupNorm(32, 1280, eps=1e-05, affine=True)
          (dropout): Dropout(p=0.0, inplace=False)
          (conv2): Conv2d(1280, 1280, kernel_size=(3, 3), stride=(1, 1), padding=(1, 1))
          (nonlinearity): SiLU()
          (conv_shortcut): Conv2d(2560, 1280, kernel_size=(1, 1), stride=(1, 1))
        )
        (2): ResnetBlock2D(
          (norm1): GroupNorm(32, 1920, eps=1e-05, affine=True)
          (conv1): Conv2d(1920, 1280, kernel_size=(3, 3), stride=(1, 1), padding=(1, 1))
          (time_emb_proj): Linear(in_features=1280, out_features=1280, bias=True)
          (norm2): GroupNorm(32, 1280, eps=1e-05, affine=True)
          (dropout): Dropout(p=0.0, inplace=False)
          (conv2): Conv2d(1280, 1280, kernel_size=(3, 3), stride=(1, 1), padding=(1, 1))
          (nonlinearity): SiLU()
          (conv_shortcut): Conv2d(1920, 1280, kernel_size=(1, 1), stride=(1, 1))
        )
      )
      (upsamplers): ModuleList(
        (0): Upsample2D(
          (conv): Conv2d(1280, 1280, kernel_size=(3, 3), stride=(1, 1), padding=(1, 1))
        )
      )
    )
    (1): CrossAttnUpBlock2D(
      (attentions): ModuleList(
        (0-2): 3 x Transformer2DModel(
          (norm): GroupNorm(32, 640, eps=1e-06, affine=True)
          (proj_in): Linear(in_features=640, out_features=640, bias=True)
          (transformer_blocks): ModuleList(
            (0-1): 2 x BasicTransformerBlock(
              (norm1): LayerNorm((640,), eps=1e-05, elementwise_affine=True)
              (attn1): Attention(
                (to_q): Linear(in_features=640, out_features=640, bias=False)
                (to_k): Linear(in_features=640, out_features=640, bias=False)
                (to_v): Linear(in_features=640, out_features=640, bias=False)
                (to_out): ModuleList(
                  (0): Linear(in_features=640, out_features=640, bias=True)
                  (1): Dropout(p=0.0, inplace=False)
                )
                (processor): AttnProcessor()
              )
              (norm2): LayerNorm((640,), eps=1e-05, elementwise_affine=True)
              (attn2): Attention(
                (to_q): Linear(in_features=640, out_features=640, bias=False)
                (to_k): Linear(in_features=2048, out_features=640, bias=False)
                (to_v): Linear(in_features=2048, out_features=640, bias=False)
                (to_out): ModuleList(
                  (0): Linear(in_features=640, out_features=640, bias=True)
                  (1): Dropout(p=0.0, inplace=False)
                )
                (processor): IPAttnProcessor(
                  (to_k_ip): Linear(in_features=2048, out_features=640, bias=False)
                  (to_v_ip): Linear(in_features=2048, out_features=640, bias=False)
                )
              )
              (norm3): LayerNorm((640,), eps=1e-05, elementwise_affine=True)
              (ff): FeedForward(
                (net): ModuleList(
                  (0): GEGLU(
                    (proj): Linear(in_features=640, out_features=5120, bias=True)
                  )
                  (1): Dropout(p=0.0, inplace=False)
                  (2): Linear(in_features=2560, out_features=640, bias=True)
                )
              )
            )
          )
          (proj_out): Linear(in_features=640, out_features=640, bias=True)
        )
      )
      (resnets): ModuleList(
        (0): ResnetBlock2D(
          (norm1): GroupNorm(32, 1920, eps=1e-05, affine=True)
          (conv1): Conv2d(1920, 640, kernel_size=(3, 3), stride=(1, 1), padding=(1, 1))
          (time_emb_proj): Linear(in_features=1280, out_features=640, bias=True)
          (norm2): GroupNorm(32, 640, eps=1e-05, affine=True)
          (dropout): Dropout(p=0.0, inplace=False)
          (conv2): Conv2d(640, 640, kernel_size=(3, 3), stride=(1, 1), padding=(1, 1))
          (nonlinearity): SiLU()
          (conv_shortcut): Conv2d(1920, 640, kernel_size=(1, 1), stride=(1, 1))
        )
        (1): ResnetBlock2D(
          (norm1): GroupNorm(32, 1280, eps=1e-05, affine=True)
          (conv1): Conv2d(1280, 640, kernel_size=(3, 3), stride=(1, 1), padding=(1, 1))
          (time_emb_proj): Linear(in_features=1280, out_features=640, bias=True)
          (norm2): GroupNorm(32, 640, eps=1e-05, affine=True)
          (dropout): Dropout(p=0.0, inplace=False)
          (conv2): Conv2d(640, 640, kernel_size=(3, 3), stride=(1, 1), padding=(1, 1))
          (nonlinearity): SiLU()
          (conv_shortcut): Conv2d(1280, 640, kernel_size=(1, 1), stride=(1, 1))
        )
        (2): ResnetBlock2D(
          (norm1): GroupNorm(32, 960, eps=1e-05, affine=True)
          (conv1): Conv2d(960, 640, kernel_size=(3, 3), stride=(1, 1), padding=(1, 1))
          (time_emb_proj): Linear(in_features=1280, out_features=640, bias=True)
          (norm2): GroupNorm(32, 640, eps=1e-05, affine=True)
          (dropout): Dropout(p=0.0, inplace=False)
          (conv2): Conv2d(640, 640, kernel_size=(3, 3), stride=(1, 1), padding=(1, 1))
          (nonlinearity): SiLU()
          (conv_shortcut): Conv2d(960, 640, kernel_size=(1, 1), stride=(1, 1))
        )
      )
      (upsamplers): ModuleList(
        (0): Upsample2D(
          (conv): Conv2d(640, 640, kernel_size=(3, 3), stride=(1, 1), padding=(1, 1))
        )
      )
    )
    (2): UpBlock2D(
      (resnets): ModuleList(
        (0): ResnetBlock2D(
          (norm1): GroupNorm(32, 960, eps=1e-05, affine=True)
          (conv1): Conv2d(960, 320, kernel_size=(3, 3), stride=(1, 1), padding=(1, 1))
          (time_emb_proj): Linear(in_features=1280, out_features=320, bias=True)
          (norm2): GroupNorm(32, 320, eps=1e-05, affine=True)
          (dropout): Dropout(p=0.0, inplace=False)
          (conv2): Conv2d(320, 320, kernel_size=(3, 3), stride=(1, 1), padding=(1, 1))
          (nonlinearity): SiLU()
          (conv_shortcut): Conv2d(960, 320, kernel_size=(1, 1), stride=(1, 1))
        )
        (1-2): 2 x ResnetBlock2D(
          (norm1): GroupNorm(32, 640, eps=1e-05, affine=True)
          (conv1): Conv2d(640, 320, kernel_size=(3, 3), stride=(1, 1), padding=(1, 1))
          (time_emb_proj): Linear(in_features=1280, out_features=320, bias=True)
          (norm2): GroupNorm(32, 320, eps=1e-05, affine=True)
          (dropout): Dropout(p=0.0, inplace=False)
          (conv2): Conv2d(320, 320, kernel_size=(3, 3), stride=(1, 1), padding=(1, 1))
          (nonlinearity): SiLU()
          (conv_shortcut): Conv2d(640, 320, kernel_size=(1, 1), stride=(1, 1))
        )
      )
    )
  )
  (mid_block): UNetMidBlock2DCrossAttn(
    (attentions): ModuleList(
      (0): Transformer2DModel(
        (norm): GroupNorm(32, 1280, eps=1e-06, affine=True)
        (proj_in): Linear(in_features=1280, out_features=1280, bias=True)
        (transformer_blocks): ModuleList(
          (0-9): 10 x BasicTransformerBlock(
            (norm1): LayerNorm((1280,), eps=1e-05, elementwise_affine=True)
            (attn1): Attention(
              (to_q): Linear(in_features=1280, out_features=1280, bias=False)
              (to_k): Linear(in_features=1280, out_features=1280, bias=False)
              (to_v): Linear(in_features=1280, out_features=1280, bias=False)
              (to_out): ModuleList(
                (0): Linear(in_features=1280, out_features=1280, bias=True)
                (1): Dropout(p=0.0, inplace=False)
              )
              (processor): AttnProcessor()
            )
            (norm2): LayerNorm((1280,), eps=1e-05, elementwise_affine=True)
            (attn2): Attention(
              (to_q): Linear(in_features=1280, out_features=1280, bias=False)
              (to_k): Linear(in_features=2048, out_features=1280, bias=False)
              (to_v): Linear(in_features=2048, out_features=1280, bias=False)
              (to_out): ModuleList(
                (0): Linear(in_features=1280, out_features=1280, bias=True)
                (1): Dropout(p=0.0, inplace=False)
              )
              (processor): IPAttnProcessor(
                (to_k_ip): Linear(in_features=2048, out_features=1280, bias=False)
                (to_v_ip): Linear(in_features=2048, out_features=1280, bias=False)
              )
            )
            (norm3): LayerNorm((1280,), eps=1e-05, elementwise_affine=True)
            (ff): FeedForward(
              (net): ModuleList(
                (0): GEGLU(
                  (proj): Linear(in_features=1280, out_features=10240, bias=True)
                )
                (1): Dropout(p=0.0, inplace=False)
                (2): Linear(in_features=5120, out_features=1280, bias=True)
              )
            )
          )
        )
        (proj_out): Linear(in_features=1280, out_features=1280, bias=True)
      )
    )
    (resnets): ModuleList(
      (0-1): 2 x ResnetBlock2D(
        (norm1): GroupNorm(32, 1280, eps=1e-05, affine=True)
        (conv1): Conv2d(1280, 1280, kernel_size=(3, 3), stride=(1, 1), padding=(1, 1))
        (time_emb_proj): Linear(in_features=1280, out_features=1280, bias=True)
        (norm2): GroupNorm(32, 1280, eps=1e-05, affine=True)
        (dropout): Dropout(p=0.0, inplace=False)
        (conv2): Conv2d(1280, 1280, kernel_size=(3, 3), stride=(1, 1), padding=(1, 1))
        (nonlinearity): SiLU()
      )
    )
  )
  (conv_norm_out): GroupNorm(32, 320, eps=1e-05, affine=True)
  (conv_act): SiLU()
  (conv_out): Conv2d(320, 4, kernel_size=(3, 3), stride=(1, 1), padding=(1, 1))
)  hook:  AlignDevicesHook(execution_device=None, offload=False, io_same_device=True, offload_buffers=False, place_submodules=False, skip_keys=None)
module:  Conv2d(4, 320, kernel_size=(3, 3), stride=(1, 1), padding=(1, 1))  hook:  AlignDevicesHook(execution_device=cuda:0, offload=True, io_same_device=False, offload_buffers=False, place_submodules=False, skip_keys=None)
…
module:  Conv2d(1280, 1280, kernel_size=(3, 3), stride=(1, 1), padding=(1, 1))  hook:  AlignDevicesHook(execution_device=cuda:0, offload=True, io_same_device=False, offload_buffers=False, place_submodules=False, skip_keys=None)
module:  GroupNorm(32, 320, eps=1e-05, affine=True)  hook:  AlignDevicesHook(execution_device=cuda:0, offload=True, io_same_device=False, offload_buffers=False, place_submodules=False, skip_keys=None)
module:  Conv2d(320, 4, kernel_size=(3, 3), stride=(1, 1), padding=(1, 1))  hook:  AlignDevicesHook(execution_device=cuda:0, offload=True, io_same_device=False, offload_buffers=False, place_submodules=False, skip_keys=None)
hehehehe 2
module:  ControlNetModel(
  (conv_in): Conv2d(4, 320, kernel_size=(3, 3), stride=(1, 1), padding=(1, 1))
  (time_proj): Timesteps()
  (time_embedding): TimestepEmbedding(
    (linear_1): Linear(in_features=320, out_features=1280, bias=True)
    (act): SiLU()
    (linear_2): Linear(in_features=1280, out_features=1280, bias=True)
  )
  (add_time_proj): Timesteps()
  (add_embedding): TimestepEmbedding(
    (linear_1): Linear(in_features=2816, out_features=1280, bias=True)
    (act): SiLU()
    (linear_2): Linear(in_features=1280, out_features=1280, bias=True)
  )
  (controlnet_cond_embedding): ControlNetConditioningEmbedding(
    (conv_in): Conv2d(3, 16, kernel_size=(3, 3), stride=(1, 1), padding=(1, 1))
    (blocks): ModuleList(
      (0): Conv2d(16, 16, kernel_size=(3, 3), stride=(1, 1), padding=(1, 1))
      (1): Conv2d(16, 32, kernel_size=(3, 3), stride=(2, 2), padding=(1, 1))
      (2): Conv2d(32, 32, kernel_size=(3, 3), stride=(1, 1), padding=(1, 1))
      (3): Conv2d(32, 96, kernel_size=(3, 3), stride=(2, 2), padding=(1, 1))
      (4): Conv2d(96, 96, kernel_size=(3, 3), stride=(1, 1), padding=(1, 1))
      (5): Conv2d(96, 256, kernel_size=(3, 3), stride=(2, 2), padding=(1, 1))
    )
    (conv_out): Conv2d(256, 320, kernel_size=(3, 3), stride=(1, 1), padding=(1, 1))
  )
  (down_blocks): ModuleList(
    (0): DownBlock2D(
      (resnets): ModuleList(
        (0-1): 2 x ResnetBlock2D(
          (norm1): GroupNorm(32, 320, eps=1e-05, affine=True)
          (conv1): Conv2d(320, 320, kernel_size=(3, 3), stride=(1, 1), padding=(1, 1))
          (time_emb_proj): Linear(in_features=1280, out_features=320, bias=True)
          (norm2): GroupNorm(32, 320, eps=1e-05, affine=True)
          (dropout): Dropout(p=0.0, inplace=False)
          (conv2): Conv2d(320, 320, kernel_size=(3, 3), stride=(1, 1), padding=(1, 1))
          (nonlinearity): SiLU()
        )
      )
      (downsamplers): ModuleList(
        (0): Downsample2D(
          (conv): Conv2d(320, 320, kernel_size=(3, 3), stride=(2, 2), padding=(1, 1))
        )
      )
    )
    (1): CrossAttnDownBlock2D(
      (attentions): ModuleList(
        (0-1): 2 x Transformer2DModel(
          (norm): GroupNorm(32, 640, eps=1e-06, affine=True)
          (proj_in): Linear(in_features=640, out_features=640, bias=True)
          (transformer_blocks): ModuleList(
            (0-1): 2 x BasicTransformerBlock(
              (norm1): LayerNorm((640,), eps=1e-05, elementwise_affine=True)
              (attn1): Attention(
                (to_q): Linear(in_features=640, out_features=640, bias=False)
                (to_k): Linear(in_features=640, out_features=640, bias=False)
                (to_v): Linear(in_features=640, out_features=640, bias=False)
                (to_out): ModuleList(
                  (0): Linear(in_features=640, out_features=640, bias=True)
                  (1): Dropout(p=0.0, inplace=False)
                )
              )
              (norm2): LayerNorm((640,), eps=1e-05, elementwise_affine=True)
              (attn2): Attention(
                (to_q): Linear(in_features=640, out_features=640, bias=False)
                (to_k): Linear(in_features=2048, out_features=640, bias=False)
                (to_v): Linear(in_features=2048, out_features=640, bias=False)
                (to_out): ModuleList(
                  (0): Linear(in_features=640, out_features=640, bias=True)
                  (1): Dropout(p=0.0, inplace=False)
                )
              )
              (norm3): LayerNorm((640,), eps=1e-05, elementwise_affine=True)
              (ff): FeedForward(
                (net): ModuleList(
                  (0): GEGLU(
                    (proj): Linear(in_features=640, out_features=5120, bias=True)
                  )
                  (1): Dropout(p=0.0, inplace=False)
                  (2): Linear(in_features=2560, out_features=640, bias=True)
                )
              )
            )
          )
          (proj_out): Linear(in_features=640, out_features=640, bias=True)
        )
      )
      (resnets): ModuleList(
        (0): ResnetBlock2D(
          (norm1): GroupNorm(32, 320, eps=1e-05, affine=True)
          (conv1): Conv2d(320, 640, kernel_size=(3, 3), stride=(1, 1), padding=(1, 1))
          (time_emb_proj): Linear(in_features=1280, out_features=640, bias=True)
          (norm2): GroupNorm(32, 640, eps=1e-05, affine=True)
          (dropout): Dropout(p=0.0, inplace=False)
          (conv2): Conv2d(640, 640, kernel_size=(3, 3), stride=(1, 1), padding=(1, 1))
          (nonlinearity): SiLU()
          (conv_shortcut): Conv2d(320, 640, kernel_size=(1, 1), stride=(1, 1))
        )
        (1): ResnetBlock2D(
          (norm1): GroupNorm(32, 640, eps=1e-05, affine=True)
          (conv1): Conv2d(640, 640, kernel_size=(3, 3), stride=(1, 1), padding=(1, 1))
          (time_emb_proj): Linear(in_features=1280, out_features=640, bias=True)
          (norm2): GroupNorm(32, 640, eps=1e-05, affine=True)
          (dropout): Dropout(p=0.0, inplace=False)
          (conv2): Conv2d(640, 640, kernel_size=(3, 3), stride=(1, 1), padding=(1, 1))
          (nonlinearity): SiLU()
        )
      )
      (downsamplers): ModuleList(
        (0): Downsample2D(
          (conv): Conv2d(640, 640, kernel_size=(3, 3), stride=(2, 2), padding=(1, 1))
        )
      )
    )
    (2): CrossAttnDownBlock2D(
      (attentions): ModuleList(
        (0-1): 2 x Transformer2DModel(
          (norm): GroupNorm(32, 1280, eps=1e-06, affine=True)
          (proj_in): Linear(in_features=1280, out_features=1280, bias=True)
          (transformer_blocks): ModuleList(
            (0-9): 10 x BasicTransformerBlock(
              (norm1): LayerNorm((1280,), eps=1e-05, elementwise_affine=True)
              (attn1): Attention(
                (to_q): Linear(in_features=1280, out_features=1280, bias=False)
                (to_k): Linear(in_features=1280, out_features=1280, bias=False)
                (to_v): Linear(in_features=1280, out_features=1280, bias=False)
                (to_out): ModuleList(
                  (0): Linear(in_features=1280, out_features=1280, bias=True)
                  (1): Dropout(p=0.0, inplace=False)
                )
              )
              (norm2): LayerNorm((1280,), eps=1e-05, elementwise_affine=True)
              (attn2): Attention(
                (to_q): Linear(in_features=1280, out_features=1280, bias=False)
                (to_k): Linear(in_features=2048, out_features=1280, bias=False)
                (to_v): Linear(in_features=2048, out_features=1280, bias=False)
                (to_out): ModuleList(
                  (0): Linear(in_features=1280, out_features=1280, bias=True)
                  (1): Dropout(p=0.0, inplace=False)
                )
              )
              (norm3): LayerNorm((1280,), eps=1e-05, elementwise_affine=True)
              (ff): FeedForward(
                (net): ModuleList(
                  (0): GEGLU(
                    (proj): Linear(in_features=1280, out_features=10240, bias=True)
                  )
                  (1): Dropout(p=0.0, inplace=False)
                  (2): Linear(in_features=5120, out_features=1280, bias=True)
                )
              )
            )
          )
          (proj_out): Linear(in_features=1280, out_features=1280, bias=True)
        )
      )
      (resnets): ModuleList(
        (0): ResnetBlock2D(
          (norm1): GroupNorm(32, 640, eps=1e-05, affine=True)
          (conv1): Conv2d(640, 1280, kernel_size=(3, 3), stride=(1, 1), padding=(1, 1))
          (time_emb_proj): Linear(in_features=1280, out_features=1280, bias=True)
          (norm2): GroupNorm(32, 1280, eps=1e-05, affine=True)
          (dropout): Dropout(p=0.0, inplace=False)
          (conv2): Conv2d(1280, 1280, kernel_size=(3, 3), stride=(1, 1), padding=(1, 1))
          (nonlinearity): SiLU()
          (conv_shortcut): Conv2d(640, 1280, kernel_size=(1, 1), stride=(1, 1))
        )
        (1): ResnetBlock2D(
          (norm1): GroupNorm(32, 1280, eps=1e-05, affine=True)
          (conv1): Conv2d(1280, 1280, kernel_size=(3, 3), stride=(1, 1), padding=(1, 1))
          (time_emb_proj): Linear(in_features=1280, out_features=1280, bias=True)
          (norm2): GroupNorm(32, 1280, eps=1e-05, affine=True)
          (dropout): Dropout(p=0.0, inplace=False)
          (conv2): Conv2d(1280, 1280, kernel_size=(3, 3), stride=(1, 1), padding=(1, 1))
          (nonlinearity): SiLU()
        )
      )
    )
  )
  (controlnet_down_blocks): ModuleList(
    (0-3): 4 x Conv2d(320, 320, kernel_size=(1, 1), stride=(1, 1))
    (4-6): 3 x Conv2d(640, 640, kernel_size=(1, 1), stride=(1, 1))
    (7-8): 2 x Conv2d(1280, 1280, kernel_size=(1, 1), stride=(1, 1))
  )
  (controlnet_mid_block): Conv2d(1280, 1280, kernel_size=(1, 1), stride=(1, 1))
  (mid_block): UNetMidBlock2DCrossAttn(
    (attentions): ModuleList(
      (0): Transformer2DModel(
        (norm): GroupNorm(32, 1280, eps=1e-06, affine=True)
        (proj_in): Linear(in_features=1280, out_features=1280, bias=True)
        (transformer_blocks): ModuleList(
          (0-9): 10 x BasicTransformerBlock(
            (norm1): LayerNorm((1280,), eps=1e-05, elementwise_affine=True)
            (attn1): Attention(
              (to_q): Linear(in_features=1280, out_features=1280, bias=False)
              (to_k): Linear(in_features=1280, out_features=1280, bias=False)
              (to_v): Linear(in_features=1280, out_features=1280, bias=False)
              (to_out): ModuleList(
                (0): Linear(in_features=1280, out_features=1280, bias=True)
                (1): Dropout(p=0.0, inplace=False)
              )
            )
            (norm2): LayerNorm((1280,), eps=1e-05, elementwise_affine=True)
            (attn2): Attention(
              (to_q): Linear(in_features=1280, out_features=1280, bias=False)
              (to_k): Linear(in_features=2048, out_features=1280, bias=False)
              (to_v): Linear(in_features=2048, out_features=1280, bias=False)
              (to_out): ModuleList(
                (0): Linear(in_features=1280, out_features=1280, bias=True)
                (1): Dropout(p=0.0, inplace=False)
              )
            )
            (norm3): LayerNorm((1280,), eps=1e-05, elementwise_affine=True)
            (ff): FeedForward(
              (net): ModuleList(
                (0): GEGLU(
                  (proj): Linear(in_features=1280, out_features=10240, bias=True)
                )
                (1): Dropout(p=0.0, inplace=False)
                (2): Linear(in_features=5120, out_features=1280, bias=True)
              )
            )
          )
        )
        (proj_out): Linear(in_features=1280, out_features=1280, bias=True)
      )
    )
    (resnets): ModuleList(
      (0-1): 2 x ResnetBlock2D(
        (norm1): GroupNorm(32, 1280, eps=1e-05, affine=True)
        (conv1): Conv2d(1280, 1280, kernel_size=(3, 3), stride=(1, 1), padding=(1, 1))
        (time_emb_proj): Linear(in_features=1280, out_features=1280, bias=True)
        (norm2): GroupNorm(32, 1280, eps=1e-05, affine=True)
        (dropout): Dropout(p=0.0, inplace=False)
        (conv2): Conv2d(1280, 1280, kernel_size=(3, 3), stride=(1, 1), padding=(1, 1))
        (nonlinearity): SiLU()
      )
    )
  )
)  hook:  AlignDevicesHook(execution_device=None, offload=False, io_same_device=True, offload_buffers=False, place_submodules=False, skip_keys=None)
module:  Conv2d(4, 320, kernel_size=(3, 3), stride=(1, 1), padding=(1, 1))  hook:  AlignDevicesHook(execution_device=cuda:0, offload=True, io_same_device=False, offload_buffers=False, place_submodules=False, skip_keys=None)
…
module:  Linear(in_features=1280, out_features=1280, bias=True)  hook:  AlignDevicesHook(execution_device=cuda:0, offload=True, io_same_device=False, offload_buffers=False, place_submodules=False, skip_keys=None)
module:  GroupNorm(32, 1280, eps=1e-05, affine=True)  hook:  AlignDevicesHook(execution_device=cuda:0, offload=True, io_same_device=False, offload_buffers=False, place_submodules=False, skip_keys=None)
module:  Conv2d(1280, 1280, kernel_size=(3, 3), stride=(1, 1), padding=(1, 1))  hook:  AlignDevicesHook(execution_device=cuda:0, offload=True, io_same_device=False, offload_buffers=False, place_submodules=False, skip_keys=None)
module:  Resampler(
  (proj_in): Linear(in_features=512, out_features=1280, bias=True)
  (proj_out): Linear(in_features=1280, out_features=2048, bias=True)
  (norm_out): LayerNorm((2048,), eps=1e-05, elementwise_affine=True)
  (layers): ModuleList(
    (0-3): 4 x ModuleList(
      (0): PerceiverAttention(
        (norm1): LayerNorm((1280,), eps=1e-05, elementwise_affine=True)
        (norm2): LayerNorm((1280,), eps=1e-05, elementwise_affine=True)
        (to_q): Linear(in_features=1280, out_features=1280, bias=False)
        (to_kv): Linear(in_features=1280, out_features=2560, bias=False)
        (to_out): Linear(in_features=1280, out_features=1280, bias=False)
      )
      (1): Sequential(
        (0): LayerNorm((1280,), eps=1e-05, elementwise_affine=True)
        (1): Linear(in_features=1280, out_features=5120, bias=False)
        (2): GELU(approximate='none')
        (3): Linear(in_features=5120, out_features=1280, bias=False)
      )
    )
  )
)  hook:  AlignDevicesHook(execution_device=None, offload=False, io_same_device=True, offload_buffers=False, place_submodules=False, skip_keys=None)
remove hook:  Resampler(
  (proj_in): Linear(in_features=512, out_features=1280, bias=True)
  (proj_out): Linear(in_features=1280, out_features=2048, bias=True)
  (norm_out): LayerNorm((2048,), eps=1e-05, elementwise_affine=True)
  (layers): ModuleList(
    (0-3): 4 x ModuleList(
      (0): PerceiverAttention(
        (norm1): LayerNorm((1280,), eps=1e-05, elementwise_affine=True)
        (norm2): LayerNorm((1280,), eps=1e-05, elementwise_affine=True)
        (to_q): Linear(in_features=1280, out_features=1280, bias=False)
        (to_kv): Linear(in_features=1280, out_features=2560, bias=False)
        (to_out): Linear(in_features=1280, out_features=1280, bias=False)
      )
      (1): Sequential(
        (0): LayerNorm((1280,), eps=1e-05, elementwise_affine=True)
        (1): Linear(in_features=1280, out_features=5120, bias=False)
        (2): GELU(approximate='none')
        (3): Linear(in_features=5120, out_features=1280, bias=False)
      )
    )
  )
)
module:  Resampler(
  (proj_in): Linear(in_features=512, out_features=1280, bias=True)
  (proj_out): Linear(in_features=1280, out_features=2048, bias=True)
  (norm_out): LayerNorm((2048,), eps=1e-05, elementwise_affine=True)
  (layers): ModuleList(
    (0-3): 4 x ModuleList(
      (0): PerceiverAttention(
        (norm1): LayerNorm((1280,), eps=1e-05, elementwise_affine=True)
        (norm2): LayerNorm((1280,), eps=1e-05, elementwise_affine=True)
        (to_q): Linear(in_features=1280, out_features=1280, bias=False)
        (to_kv): Linear(in_features=1280, out_features=2560, bias=False)
        (to_out): Linear(in_features=1280, out_features=1280, bias=False)
      )
      (1): Sequential(
        (0): LayerNorm((1280,), eps=1e-05, elementwise_affine=True)
        (1): Linear(in_features=1280, out_features=5120, bias=False)
        (2): GELU(approximate='none')
        (3): Linear(in_features=5120, out_features=1280, bias=False)
      )
    )
  )
)  hook:  <accelerate.hooks.SequentialHook object at 0x7f662fe287a0>
module:  Linear(in_features=512, out_features=1280, bias=True)  hook:  AlignDevicesHook(execution_device=cuda:0, offload=True, io_same_device=False, offload_buffers=True, place_submodules=False, skip_keys=None)
module:  Linear(in_features=1280, out_features=2048, bias=True)  hook:  AlignDevicesHook(execution_device=cuda:0, offload=True, io_same_device=False, offload_buffers=True, place_submodules=False, skip_keys=None)
…
